models/cnn_model.onnx (onnx, 22199 bytes, 6 tensors)

features.0.weight f4 [16, 3, 3, 3]
00000000: ef2d cdbd 869e 673d b4ae 50bc 9e46 f13d
00000010: dc54 2a3d cd37 b1bc db1e dcbd cf37 dd3c
00000020: 54f5 413e dbdc 263e 60b9 123e 6b75 73bd
00000030: 1077 a2bd f2fa a3bd 5d8c c43d bd9c a1bd
00000040: d20b 343d 6c3c d0bd de62 3a3e 1d3c 43be
00000050: ce29 993d f544 18bd aab6 e23c 2e4d e9bd
00000060: 1dbb de3a 40f2 0d3e 8d4c d73c 932f acbd
00000070: 034d 01be 1399 8abd b7b8 38bd 8e8f 0cbe
00000080: 120c c93d 8dcd b83d 423c 1dbd 20b9 143e
00000090: 0cf7 0dbb 9a18 44be 86d8 4e3d a73d 183e
000000a0: 65b5 053e e674 09be 4aa5 e8bc ca20 61bd
000000b0: a64a ec3d a28e d3bc 0799 8c3d 2e38 89bd
000000c0: f544 d1bc 620e 0bbe 7568 17be 5bbe 6fbd
000000d0: 1141 0ebd ec82 07be d070 33be 8f6d 213e
000000e0: 8ddf bbbd 286f 1abe 98f9 3bbe 9e1b a83d
000000f0: 2567 363e 302e 183e a643 c53d 6d2c fbbd
00000100: b8cc c1bc db96 c13d e1a9 c7bc 10e2 b93d
00000110: 04c1 9d3d d1c9 c43d 479c 743c 5aca 03be
00000120: ccae 0b3e df85 113e 868e fc3d 9420 31be
00000130: 829c 843d 7cf5 35be 01ba 01bd abcc 3d3d
00000140: 9e28 2dbd a3e0 dfbd 2dc3 6dbd e6fc 0ebe
00000150: a5dd cabd 56cc 1a3d 43ec 3f3e 6df6 27bd
00000160: 9c00 103e cb45 d23d b3a8 d5bd c0f8 b0bd
00000170: 2ace 01bd b472 0b3e 0e31 b73d b4e5 fcbd
00000180: e147 13be 9cc5 25be 20d1 e73d b06d 4a3d
00000190: da33 0dbe 8d32 cbbd 91af 22be 5b47 15be
000001a0: 9920 ee3d 8515 d13c 7dda 71bd 5379 34be
000001b0: 03b7 e93d 00d1 163e 3f7e da3d 3e7d 8c3d
000001c0: 14ef 3b3e eed2 85bd 9edd 0ebe 40a7 2f3e
000001d0: 98fb 6ebd 2e40 19bd f860 f6bc b8de 06be
000001e0: 1ded 3abe a4a1 e2bc 3a4c 0c3e 3ae3 55bd
000001f0: e1a2 00bd 9880 eabc d0cd eabc edcb e13d
00000200: 9dbf 97bd 53c7 39be 40d9 3e3e 8af4 423e
00000210: 0a1c ea3c b9f8 05be 89cd 23be 57cf 2c3e
00000220: 1cea 043e 0c89 f63d b335 d23d dae7 6f3d
00000230: 5f41 1bbe 94ab 08be 1c7a c8bd f007 24bc
00000240: 28e5 413e 8868 103d 62bb 283e aa0e 393e
00000250: bb1f b6bc efaa ec3d 3580 c6bd 4b1c 81bc
00000260: dc82 0f3e 7891 213e 4c76 b8bc c500 10be
00000270: 6524 683d 058b 3dbd 953d e6bd 90ca 5f3d
00000280: c475 223d d54f 8a3c 509a aa3d 548c 29bd
00000290: f349 19be 978d d0bd ccad 433e 20a6 2fbe
000002a0: 9dd5 f9bc d9f9 173e b4bc f43b d058 cbbd
000002b0: 11ab 11be 1273 583d 8a9e 2b3e 6530 ebbd
000002c0: 370b 1ebd 9750 07be 0756 bcbd 83e0 803d
000002d0: 79ec 7a3d 1561 223e 1f20 26be 305b c13d
000002e0: 02c4 9b3d adbc 703b bd63 42be 7d52 d63d
000002f0: ca84 26be 2ee2 b33d c894 a7bc f08a cf3d
00000300: 013b d23d c756 2abe f7c3 2c3e 54e3 c63d
00000310: 07de ba3d b642 2c3d 6eed b03d 3686 303e
00000320: b124 2ebe d5fa df3d 5607 263e b8ee 423d
00000330: e955 15be a4e4 0cbe 0df8 b2bd bbf4 0ebe
00000340: 9a97 24be 48b4 d03d 6592 14bd 6363 e1bd
00000350: d20e 413c 4dd3 be3d ec20 7c3d 1f3c 853b
00000360: 8e1e a5bd 3b6b 46bd b8e2 3bbe 8d0d 07be
00000370: 008c 06be 357c f03d 5cc3 f63c bfe4 27bc
00000380: ee5c 3fbe 8210 163e 8015 05be 18ae 9f3d
00000390: a360 d53d 12dc 3e3d c8c4 3abd faef f5bd
000003a0: dac6 8abd 4b19 ddbd bef2 d5bd 1c31 e83d
000003b0: 4b6b 2cbc 3aae 0e3e 03fa c23d c83f a23d
000003c0: 5556 b2bd a54f 30be 5b0c dc3d 1069 433e
000003d0: c10d 033d ec51 afbd dd04 a53d 484e 65bb
000003e0: f30b bebd 0bbd b4bb 38a2 80bd ed31 293d
000003f0: 26b8 01be e525 37bd 777a d9bc 93e9 363e
-0.10018527 0.056547664 -0.012736965 0.11781047 0.041584834 -0.021633053 -0.10748073 0.02700415
0.18941242 0.16295187 0.14328527 -0.05943815 -0.079328656 -0.080068484 0.09597085 -0.078912236
0.043956585 -0.101677746 0.18201777 -0.190659 0.07478677 -0.037175138 0.027674992 -0.11391674
0.001699302 0.13861942 0.02628162 -0.084075116 -0.12627034 -0.06767478 -0.045098033 -0.13726637
0.09816755 0.09023581 -0.038387544 0.14523745 -0.0021662144 -0.1915001 0.05049946 0.14867269
0.13057478 -0.134235 -0.028399128 -0.05496291 0.115376756 -0.025824849 0.06865125 -0.067001686
-0.025545577 -0.13579705 -0.14785941 -0.058531146 -0.03473002 -0.13233536 -0.17523503 0.1576445
-0.09173498 -0.15081465 -0.18356931 0.082083926 0.17812784 0.14861369 0.096320435 -0.12264333
-0.023657188 0.094526015 -0.024372997 0.09076321 0.077028304 0.09608806 0.014929838 -0.1287016
0.13640898 0.14211224 0.12331872 -0.17297584 0.06475164 -0.17769426 -0.031671528 0.046337765
-0.042275064 -0.10931518 -0.058047462 -0.1396366 -0.099055566 0.037792526 0.1874247 -0.041006494
0.14062732 0.10267218 -0.104325674 -0.08641195 -0.031690754 0.13617975 0.08944903 -0.123485
-0.14382888 -0.16188663 0.11319184 0.049421012 -0.13789311 -0.09921751 -0.15887286 -0.14578001
0.11627311 0.025522957 -0.059046257 -0.17624407 0.1141186 0.14728165 0.10668611 0.068598256
0.1835292 -0.06534372 -0.13951728 0.17153645 -0.058345407 -0.037414722 -0.030075535 -0.13170898
-0.18254514 -0.027664967 0.13700953 -0.052218653 -0.031405333 -0.028625771 -0.028662592 0.11025224
-0.07409594 -0.18142442 0.18637562 0.19038597 0.028577823 -0.13083161 -0.15996374 0.16875969
0.1297993 0.12037858 0.102641486 0.05857072 -0.15161656 -0.13346702 -0.097889155 -0.010011658
0.18935072 0.03525594 0.16477731 0.18072 -0.022231927 0.115560405 -0.09692422 -0.015760561
0.14014763 0.15778148 -0.022517346 -0.14062794 0.056675334 -0.046275157 -0.112422146 0.054636538
0.03966309 0.01688377 0.08330214 -0.041393593 -0.14969616 -0.10183256 0.19109267 -0.17153215
-0.030497367 0.14841403 0.007468784 -0.09929049 -0.14225413 0.052844115 0.16759697 -0.1148384
-0.038584914 -0.13214336 -0.09196096 0.06292822 0.061260674 0.15857346 -0.1622319 0.09441221
0.07605745 0.0036733553 -0.1898336 0.10464952 -0.16261593 0.08783375 -0.020456687 0.10133922
0.1026516 -0.16634665 0.1687163 0.09711328 0.091243796 0.042055808 0.08639036 0.17238697
-0.17006184 0.10936514 0.16213736 0.04759094 -0.14583553 -0.13759094 -0.08738718 -0.13960545
-0.16073456 0.10190636 -0.036272425 -0.11005285 0.011783319 0.09317646 0.061554834 0.004066005
-0.080624685 -0.048442107 -0.18348205 -0.13188763 -0.13139343 0.117424406 0.030122451 -0.010247408
-0.18687794 0.14654735 -0.12996483 0.077968776 0.104188226 0.046596594 -0.04559782 -0.120086625
-0.06776209 -0.1079584 -0.1044669 0.11337492 -0.0105236275 0.1393365 0.09520342 0.079223216
-0.08707873 -0.17217882 0.10744544 0.19083047 0.03199554 -0.08560547 0.08057568 -0.0034989286
-0.09279623 -0.0055156997 -0.06280941 0.04130738 -0.12667903 -0.044713873 -0.026547654 0.17862539

features.0.bias f4 [16]
00000000: 13cb 143e 01a0 273e af9a 283e 1319 42ba
00000010: 7bf6 21bd b3b3 da3d 8a80 b7bd 4b29 ca3c
00000020: e140 fc3d 8b9c 1dbe c58f 34be 474b 2ebe
00000030: 0227 b83c 9860 8e3d 1e48 3dbd 35df f53d
0.14530592 0.1636963 0.16465257 -0.0007404249 -0.039541703 0.10678806 -0.08960064 0.024677893
0.12317062 -0.15391748 -0.17632969 -0.17020904 0.022479538 0.069520175 -0.046211354 0.12005464

features.2.weight f4 [32, 16, 3, 3]
00000000: 9218 943d 4780 84bd 8649 a13c e620 f2bc
00000010: b0fd ecbc 00b6 313d 0057 2fbd 18fc 98bd
00000020: e4ca 993d 2bce 613d 3ad7 9bbd 36e0 47bc
00000030: 163f 3f3d 3ce0 a13d e36a 543d 162f aabb
00000040: eb6b 89bc 0bb5 abbc 0ae4 833d 6bda 843b
00000050: 1845 993d e86e 543d 823a 803d a61f b13c
00000060: 5689 083c 936d 05bd 0048 a8b9 f666 6c3c
00000070: 4a24 96bd 8021 4e3b eb69 1d3d fbd5 7dbd
00000080: 265f b73c 5b82 7e3d 581d 633d 00e0 05bc
00000090: 76a4 8f3c 3760 94bd 96ad 8d3b f808 8bbd
000000a0: 562f 153c e3a5 063d 93a9 4dbd 8b96 9a3d
000000b0: ce6b 70bd 56fc 95bb b097 80bc 9663 1d3c
000000c0: 48f5 15bd 2e8c 46bd 6b23 f53c ab82 783c
000000d0: 1610 4fbd fef8 2fbd eb21 48bc 10c3 79bd
000000e0: cb81 9ebc 7cc3 8d3d 608b bebc e6ed 8bbc
000000f0: 1b1d 4ebd fb4f cc3c ab7e bdb9 e071 853d
00000100: 7ef4 21bd 5666 dd3a db1a 66bd 1b1b 1bbd
00000110: 64af 803d 30b6 e13c 504a d9bc 5655 52b9
00000120: 8306 7d3d 60d4 2cbc 9b17 8cbc 4307 0bbd
00000130: 2634 96bc 7e6b 95bd bb0b 503d ab8d d03a
00000140: 9091 86bc 365d 403d cbf6 07bd 4bb8 133c
00000150: 5b62 303d 5e2d 5dbd d6eb 8dbc fe7c 20bd
00000160: 3092 993c 4b25 1c3d 0095 313c 0b14 163c
00000170: 23db 8bbd cb83 83bd 9bec 64bd 8b45 6abc
00000180: 4085 0fbd 3682 6ebc 861a e33c bb2a ae3c
00000190: 534a 44bd 0f95 893d eb5e cc3c 7471 983d
000001a0: 38e3 333d fe2b 1cbd 10e9 2bbd 2842 36bd
000001b0: c6e9 9a3c 163b c73b c02e 003d bf38 993d
000001c0: 0beb ce3c fb6a 83bd 26b4 8dbd 94ed a33d
000001d0: ab77 933c 66c5 e2bc aee1 6f3d 9b06 4abd
000001e0: fe11 6c3d 5409 953d 16a3 91bb 5baa 4e3d
000001f0: becb 1e3d 965a f7bc d02e 85bc 1627 08bc
00000200: 0bc3 92bd b778 86bd 100a 2c3d 5635 c9bc
00000210: 9e93 2dbd 00cb 59bc a69e 833d 3085 c2bc
00000220: 661b 773d 460d 35bd 6b0a 6bbd 5e81 72bd
00000230: 1693 df3b 0fad 82bd bba7 913d 53ed 9abd
00000240: bbfb 1d3d a61f 3a3d 206a 143c f394 8a3d
00000250: f08e 54bd ab69 62bc 4bcf 493d 06b8 8cbd
00000260: aefd 8abd 90d7 9c3d 73c8 153d 2bc2 38bd
00000270: c6c5 0e3d 5610 9e3c f673 71bd 067e 693d
00000280: b306 8cbd d05e 313d 4b12 ad3c 1b90 d4bc
00000290: bbf1 a23d 7c61 a23d e74c a93d d0f0 cd3c
000002a0: 7659 ad3c 7e3c 123d 40e2 2e3d b645 66bd
000002b0: 2b9f 86bc 6b09 3e3d 9299 9bbd def2 203d
000002c0: 8722 8ebd 5f42 963d 36c0 7a3d de3c 313d
000002d0: 9b55 87bd ebf1 28bc 8b9c 5d3c 7ba3 86bd
000002e0: 98d3 6d3d eee5 2e3d db6e 6e3d ab3c 723c
000002f0: 08f5 72bd f2ae 88bd 460c 923d abdc d1ba
00000300: fbf4 633d 40e5 6d3c 36a9 98bc c08d 733d
00000310: 4b65 91bc 2ce8 92bd 7ef4 95bd d0a7 24bd
00000320: 5678 f4bb 20d3 2abc 2b7f 15bc 3814 1a3d
00000330: ab2a 98bb 3030 a03c cee3 41bd 3080 dc3c
00000340: eef9 9f3d 0b38 fd3c 7a0c 85bd ab5c 1dba
00000350: c607 483d 380a 533d 0b71 333c cb3a f23c
00000360: f338 943d 3244 92bd f04f 983c b64e 6c3c
00000370: 2fbb 95bd b3f9 76bd fb60 a03d b02b e53c
00000380: 1212 92bd 36fc b93c 465d f23c a02b 12bd
00000390: 980b 553d 8bf6 193d 782c 16bd 166a ed3b
000003a0: cb22 3ebc c030 863b c3d8 a1bd dadc 913d
000003b0: 60ba 1dbc cba1 8c3c 1bd0 bebc b338 123d
000003c0: 88b1 053d d608 b5bb 0000 333b 5fa6 863d
000003d0: b810 923d f0f9 643d a6ea aabc f0c5 f5bc
000003e0: 06e9 ddbc eb7a 0d3d 2058 15bd 4bad 82bc
000003f0: 2692 0d3d 3037 93bc 0bb1 ea3c 80fd 35bb
0.07231249 -0.064697795 0.019688379 -0.029556703 -0.028929561 0.04338646 -0.04280758 -0.07469958
0.075094014 0.055128258 -0.076094106 -0.012199452 0.046691023 0.079040974 0.051859748 -0.0051936014
-0.016775092 -0.020960351 0.064399794 0.0040543578 0.07483882 0.05186358 0.062611595 0.021621536
0.008333525 -0.0325752 -0.000320971 0.014428845 -0.0733114 0.0031453073 0.03843109 -0.061971646
0.022384237 0.062136035 0.055447906 -0.008171082 0.017534476 -0.07244914 0.0043236716 -0.0678882
0.009105524 0.032873046 -0.050210547 0.07548245 -0.05869656 -0.0045772 -0.01569733 0.009606263
-0.03661087 -0.04847353 0.029924115 0.015167872 -0.05055245 -0.042962067 -0.012215118 -0.06097704
-0.019349 0.06922051 -0.023259819 -0.017081212 -0.050320726 0.024940481 -0.00036143264 0.065158606
-0.039539807 0.001689146 -0.056177955 -0.037867647 0.06283453 0.027552694 -0.026524693 -0.00020058951
0.06177379 -0.010548681 -0.0171011 -0.033942472 -0.018335413 -0.07295893 0.050792437 0.0015911361
-0.016426831 0.046963893 -0.033194344 0.009016107 0.04306255 -0.053998344 -0.01732437 -0.0391817
0.018746465 0.038121503 0.010838747 0.009160052 -0.068289064 -0.06421622 -0.055889707 -0.014298807
-0.035039186 -0.014557412 0.027722608 0.02126061 -0.047922444 0.06717884 0.024947604 0.074435145
0.043917865 -0.03812789 -0.041970313 -0.044496685 0.0189103 0.0060800416 0.031294584 0.074815266
0.025258562 -0.06416889 -0.06919126 0.08004299 0.018001398 -0.027682018 0.058564834 -0.049322706
0.057634346 0.0727717 -0.00444449 0.050455432 0.038768522 -0.030194562 -0.016257674 -0.0083101
-0.07166108 -0.06565993 0.042001784 -0.024561565 -0.042377107 -0.013293028 0.06426744 -0.02374515
0.060328864 -0.04420211 -0.057382982 -0.059205405 0.006822954 -0.063806646 0.0711207 -0.07564797
0.038570147 0.04544034 0.009058505 0.06766691 -0.05189413 -0.0138191385 0.049269956 -0.06871037
-0.06786667 0.07658303 0.036568116 -0.045107048 0.03485658 0.019294899 -0.05894848 0.05700495
-0.06837215 0.04330331 0.021126887 -0.025947621 0.07956263 0.0792875 0.08266621 0.025139242
0.021160822 0.03570222 0.042696238 -0.056218825 -0.01643332 0.0463957 -0.075976506 0.039294116
-0.06940179 0.07336878 0.061218463 0.043270938 -0.06608125 -0.010311584 0.013526092 -0.0657415
0.05806312 0.042699747 0.05821119 0.014784972 -0.05931571 -0.06673993 0.07131247 -0.0016011199
0.055653553 0.0145199895 -0.018635374 0.059461355 -0.017748496 -0.071731895 -0.07322024 -0.0401991
-0.007460634 -0.010426313 -0.0091245575 0.03761694 -0.0046437583 0.019554228 -0.047336392 0.026916593
0.07811342 0.030910512 -0.0649652 -0.00060028833 0.04883554 0.051523417 0.0109522445 0.02956905
0.07237425 -0.071419135 0.018592805 0.014423063 -0.07311093 -0.060296725 0.078309976 0.027974933
-0.07132353 0.022703271 0.029585492 -0.035686135 0.05201301 0.037588637 -0.036663502 0.0072453124
-0.011604975 0.004095167 -0.07902672 0.07122202 -0.009626955 0.017166993 -0.023292592 0.035698604
0.03264001 -0.005524735 0.0027313232 0.065747015 0.07132095 0.05590242 -0.020863842 -0.03000161
-0.027088653 0.03454105 -0.036460996 -0.015951773 0.034563206 -0.017970651 0.028648874 -0.0027769506

features.2.bias f4 [32]
00000000: dba2 993d 38c1 a43d c0e5 bbbb c8ef 3a3d
00000010: 60a0 18bd 1ba0 85bc 73d9 743d 568c 0c3d
00000020: fb66 db3c 2b27 1cbd 5b48 9cbd b83f 14bd
00000030: f45e 973d 18ba 303d db80 363d a618 b13c
00000040: f7d7 873d d638 933c 00f9 0b3b 5615 1cbc
00000050: b835 80bd 68a2 413d 43e4 1ebd 4813 42bd
00000060: 2312 943d 6322 1f3d c06b d53c 16fd fe3b
00000070: 8e3a 473d 96c4 b0bb 2e27 1bbd a399 31bd
0.07501765 0.08044666 -0.0057341754 0.04563883 -0.03726232 -0.016311696 0.05977769 0.034313522
0.026782503 -0.03812329 -0.07630988 -0.03619358 0.07391158 0.043146223 0.04455648 0.021618199
0.06632989 0.017971437 0.0021358132 -0.009526571 -0.06260246 0.047274023 -0.038791906 -0.04738167
0.07230022 0.038851153 0.026052356 0.007781635 0.048639826 -0.0053945286 -0.03787916 -0.04335941

classifier.1.weight f4 [2, 32]
00000000: ad10 7abc 8fa6 863d 097b 833c 4c76 f83d
00000010: 4fe7 42bc 8399 30be 8bf6 213e 03d3 4dbd
00000020: 72f6 2b3e 0c48 f4bd 4e43 073e 5d82 a2bd
00000030: 0866 eebd cb03 15be f4aa a63d ae9d cb3d
00000040: d761 b4bd dc88 a2bd 9144 703d b07d 1e3e
00000050: 2022 4dbd a6ad ccbd 964d 343d c821 943b
00000060: 5e48 0bbe 2188 f8bd 6254 debd 5dd5 4f3c
00000070: 6d54 203e ba01 ef3c 464c 003e ff56 31bc
00000080: 2c98 263c 678b e33d f8e9 23be fbc9 69bd
00000090: be42 2abe 7531 823d 72c3 073c d808 b8bd
000000a0: 86cf 1f3e fe21 e0bd 2c17 13be 8f58 f73d
000000b0: 029b 09be 3fc4 d4bd a44d 86bd af96 99bd
000000c0: cdb3 57bd 2a80 f4bd 8768 2b3d 6b12 d2bd
000000d0: 2d8f 303e d117 4f3d 17d4 b03c 004a 3a3d
000000e0: 9d09 82bd bdc2 bebc 01f7 bf3d a36f a83d
000000f0: 6686 efbc 9767 073d 0ad2 18be 8e0d 04be
-0.015262765 0.06574737 0.016049879 0.12131938 -0.011895969 -0.1724606 0.15816705 -0.050250065
0.1679323 -0.11927804 0.13209268 -0.07935021 -0.11640555 -0.14552228 0.081380755 0.099421844
-0.08807724 -0.0793626 0.05865914 0.15477633 -0.050081372 -0.09994058 0.044019304 0.0045206286
-0.13601825 -0.121353395 -0.108559385 0.012685147 0.15657206 0.029175628 0.12529096 -0.010823964
0.010168117 0.11110573 -0.16007221 -0.05707739 -0.16627023 0.063570894 0.008286344 -0.08986062
0.15606508 -0.109439835 -0.14364308 0.12077438 -0.13438037 -0.103889935 -0.065577775 -0.07499444
-0.052661706 -0.11938508 0.041847732 -0.10257419 0.17242117 0.050559822 0.021585507 0.04548073
-0.0634949 -0.023286218 0.09373284 0.08224418 -0.02923889 0.033057775 -0.14923874 -0.12895796

classifier.1.bias f4 [2]
00000000: 4259 bc3c 39d4 883d
0.02299178 0.06681103
