models/cnn_haze.onnx (onnx, 22199 bytes, 6 tensors)

features.0.weight f4 [16, 3, 3, 3]
0	0x3e14e807	0.14541636
1	0xbe247589	-0.16060461
2	0xbc8a5cec	-0.016890012
3	0x3d09f767	0.033683207
4	0x3ddfc863	0.109268926
5	0xbd428d56	-0.04749807
6	0x3e1c9c27	0.15293942
7	0xbdde7572	-0.10862245
8	0x3a26a342	0.0006356725
9	0xbd2ed4ad	-0.042683292
10	0x3da1f66c	0.07908329
11	0xbdf89dfd	-0.12139509
12	0x3e18f182	0.14935878
13	0x3c0a679a	0.008447552
14	0x3daf4c76	0.08559506
15	0xbe3ac7f7	-0.18240343
16	0x3e2efab7	0.17087828
17	0x3e0d29e0	0.13785505
18	0xbd39734c	-0.04527597
19	0x3ded7365	0.115942754
20	0x3dd0dfe3	0.10198953
21	0xbd8b7de2	-0.068111196
22	0x3d6e1305	0.058123607
23	0x3d4c670f	0.04990297
24	0x3df069fc	0.11738965
25	0x3cab3894	0.020901002
26	0x3e257ce0	0.16160917
27	0x3da76695	0.08173863
28	0xbcc157db	-0.023601463
29	0x3d22ba84	0.039728656
30	0x3d245977	0.040124383
31	0x3da6bb34	0.08141175
32	0x3b25eebd	0.00253193
33	0x3e33036b	0.17481773
34	0x3e261c09	0.16221632
35	0xbc70ddaf	-0.014701291
36	0x3e2b800c	0.16748065
37	0x3da1b945	0.078966655
38	0xbe0f4e02	-0.13994601
39	0xbd5f126a	-0.05446092
40	0xbdf95481	-0.12174321
41	0xbda25814	-0.07926956
42	0x3e26d565	0.16292341
43	0x3d3887e8	0.045051485
44	0x3cf25848	0.029583111
45	0x3e2cb610	0.16866326
46	0xbe1b8d13	-0.15190534
47	0xbc1bb12f	-0.009502693
48	0xbe440189	-0.1914121
49	0x3ddd7362	0.10813023
50	0xbcfc9d3f	-0.0308367
51	0x3e2f80eb	0.17139022
52	0x3df1a886	0.117997214
53	0x3dba2e12	0.090908185
54	0x3d413979	0.04717395
55	0x3d145d34	0.036221698
56	0xbe1f0608	-0.15529644
57	0x3dc1e862	0.09468152
58	0xbe0e8df8	-0.13921344
59	0x3d7c7fc7	0.061645295
60	0xbdf42066	-0.11920242
61	0x3d2c9c27	0.042141106
62	0x3db2787e	0.08714388
63	0xbd34fe24	-0.04418768
64	0x3dc3607e	0.09539889
65	0xbdf2b69b	-0.118512355
66	0x3e14ce09	0.14531721
67	0x3d297f8e	0.04138141
68	0xbc95d867	-0.018291665
69	0xbe046956	-0.12930807
70	0x3db44685	0.08802513
71	0xbd91a94c	-0.07112369
72	0x3b40ae7f	0.0029400883
73	0x3e43508f	0.190737
74	0xbe184f6c	-0.14874047
75	0x3cd4f3d2	0.025995169
76	0x3d83381e	0.06407188
77	0xbe34bee2	-0.17650941
78	0x3c2b7e1a	0.010467077
79	0x3ceab687	0.028651489
80	0x3d44fa54	0.048090294
81	0x3b0e318d	0.0021697015
82	0x3e346e2d	0.17620154
83	0xbe24c91c	-0.16092342
84	0x3d4dd853	0.05025513
85	0xbe038fe4	-0.12847859
86	0xbd8a6c13	-0.06758895
87	0x3e044bb0	0.12919497
88	0x3da266f5	0.07929794
89	0xbda6a522	-0.08136965
90	0x3d1c6cae	0.038189583
91	0x3c8c0fcf	0.017097382
92	0xbd8a73ad	-0.06760345
93	0x3d976947	0.07393127
94	0xbb884f3e	-0.004159837
95	0x3cef473a	0.029208768
96	0x3d774247	0.06036594
97	0x3c3a7c09	0.011382111
98	0xbdacf8d4	-0.08445898
99	0xbe03b9de	-0.12863871
100	0xbddfcc46	-0.10927634
101	0x3d07fff4	0.03320308
102	0xbda6bd05	-0.08141521
103	0xbe443dd7	-0.19164215
104	0x3ca1e4f2	0.01976249
105	0xbced214d	-0.028946543
106	0x3e33b969	0.17551197
107	0xbd77af35	-0.060469825
108	0xbdab5030	-0.08364904
109	0xbe1b6ebc	-0.1517896
110	0xbe2a33e7	-0.16621362
111	0x3ddd47ea	0.10804732
112	0xbdf55b24	-0.11980274
113	0x3d932dd2	0.07186474
114	0xbdc89013	-0.09793105
115	0xbe1eb025	-0.15496881
116	0x3e2cd984	0.1687985
117	0x3d0ef147	0.03489807
118	0xbbe9920d	-0.0071280063
119	0xbd48e6a1	-0.04904807
120	0xbe1c7fe0	-0.15283155
121	0x3c615015	0.013752003
122	0xbde81c7e	-0.113335595
123	0x3d505568	0.0508627
124	0x3ca28464	0.01983852
125	0xbe17e55c	-0.14833587
126	0xbe25dab6	-0.16196713
127	0xbd9447d5	-0.072402634
128	0x3cfb0fe2	0.030647222
129	0x3db35e8e	0.08758269
130	0x3da80025	0.082031526
131	0x3dc5f3b5	0.09665624
132	0x3da98cde	0.082788214
133	0x3e28c241	0.16480352
134	0x3d8e29c1	0.06941558
135	0x3d84cabf	0.06483983
136	0xbd9be9f8	-0.076129854
137	0x3da070b3	0.07833996
138	0x3d839ace	0.06426011
139	0x3dd07044	0.10177663
140	0x3e13b290	0.14423585
141	0xbe182082	-0.14856151
142	0xbe1b0d19	-0.15141715
143	0xbd0e1be0	-0.034694552
144	0xbd4a7c1f	-0.049434777
145	0xbdf11516	-0.117716
146	0x3ac8040b	0.0015259994
147	0x3d972692	0.073804036
148	0xbe2a03c9	-0.16603006
149	0x3e0a8e49	0.1353084
150	0x3c847c7d	0.016172642
151	0x3de5d7c3	0.11222794
152	0xbde4acd1	-0.111657746
153	0xbe1335a3	-0.1437593
154	0xbe2836c1	-0.16427137
155	0xbe030bb4	-0.12797433
156	0x3d830a22	0.06398417
157	0xbe194b01	-0.14970018
158	0xbe1d4085	-0.15356643
159	0x3d2875af	0.041127857
160	0xbd85daa4	-0.06535843
161	0xbe234d0b	-0.15947358
162	0xbcf06536	-0.029345136
163	0x3df789dc	0.120868415
164	0x3de424fb	0.11139866
165	0xbd40cce8	-0.047070414
166	0xbe02c91d	-0.12772031
167	0x3d3d0706	0.046149276
168	0x3e076afc	0.13224405
169	0x3cc54ad8	0.02408354
170	0xbc4c023d	-0.0124517055
171	0x3d7e7a04	0.062128082
172	0x3d361cf0	0.04446119
173	0xbddff152	-0.109347
174	0xbce9aac8	-0.028523818
175	0x3d4db08f	0.050217208
176	0xbd541f5b	-0.051787715
177	0xbe3d9b98	-0.18516386
178	0x3d4274f2	0.04747481
179	0xbe1e97e7	-0.15487634
180	0x3e3c46a6	0.18386325
181	0x3e1867a1	0.14883281
182	0xbe262319	-0.16224326
183	0xbdc2b596	-0.09507291
184	0x3d6daabc	0.058024153
185	0xbb931e7c	-0.004489718
186	0x3d967e3c	0.07348296
187	0xbdd388d2	-0.10328831
188	0xbddda2b4	-0.10822049
189	0xbdeebbb4	-0.11656895
190	0x3e20f89c	0.15719837
191	0x3dcfe905	0.10151867
192	0xbd53e380	-0.051730633
193	0xbe2cfb39	-0.16892709
194	0xbc98f519	-0.01867156
195	0xbc7fc063	-0.015609833
196	0x3d5fbfdc	0.05462633
197	0xbe331f61	-0.17492439
198	0x3d76fe7d	0.060301293
199	0xbe2f28df	-0.17105435
200	0xbdc565b4	-0.09638539
201	0x3de24036	0.110474035
202	0xbcc7b74d	-0.024379397
203	0xbc0b2888	-0.00849355
204	0x3d1afae3	0.03783692
205	0x3e13244c	0.14369315
206	0xbd9c77f3	-0.07640066
207	0xbe162ac1	-0.14664747
208	0x3dac4761	0.08412052
209	0x3c44d489	0.012013563
210	0x3d41fcaa	0.0473601
211	0x3e421924	0.18954903
212	0x3d3e4260	0.04645002
213	0xbdad7225	-0.08469037
214	0xbd66c9a0	-0.05634463
215	0x3dbb7094	0.09152332
216	0xbd152548	-0.036412507
217	0x3c8141c6	0.015778434
218	0xbe19c409	-0.15016188
219	0x3d38dfcf	0.045135316
220	0x3e2fb76b	0.17159812
221	0x3bec90c6	0.007219407
222	0x3e2fa54c	0.171529
223	0xbda9bf25	-0.08288411
224	0x3debe696	0.1151859
225	0xbca6076c	-0.02026721
226	0xbda6cd42	-0.081446186
227	0xbe0320d4	-0.12805492
228	0xbaf0ca89	-0.0018370907
229	0xbe052b3c	-0.13004774
230	0xbd01367d	-0.031546105
231	0x3d9e3eda	0.07726832
232	0xbdafb5d7	-0.08579605
233	0x3e43ca6c	0.19120187
234	0xbdee1125	-0.11624364
235	0xbe261c7e	-0.16221806
236	0x3e293e30	0.16527629
237	0xbe2c12e2	-0.16804078
238	0x3e352225	0.17688806
239	0xbe10cd70	-0.14140868
240	0xbd51f858	-0.05126223
241	0xbbf9312a	-0.0076047378
242	0xbe35751c	-0.17720455
243	0xbe419296	-0.18903574
244	0xbe0fb9eb	-0.14035766
245	0xbd7c7646	-0.06163623
246	0xbe272e7f	-0.1632633
247	0xbd8f1ca7	-0.06987887
248	0xbcbeff38	-0.023315057
249	0x3dda8c8d	0.10671339
250	0x3e185a6e	0.14878246
251	0xbd8d9c98	-0.069146335
252	0xbe012c85	-0.12614639
253	0xbbeb7486	-0.0071855215
254	0x3df7cb3e	0.12099312
255	0xbbcbc5b7	-0.006218638

features.0.bias f4 [16]
0	0x3df0f853	0.11766114
1	0x3e0d4343	0.1379519
2	0xbe329013	-0.17437772
3	0x3d044181	0.032289032
4	0x3e3a56c3	0.1819716
5	0xbe30cb4a	-0.17265049
6	0x3e13aee0	0.14422178
7	0x3d8c153f	0.0683999
8	0xbe046ae1	-0.12931396
9	0x3d88ab58	0.06673306
10	0xbd939b46	-0.072073504
11	0x3cc83e7f	0.024443863
12	0x3c36909a	0.011142874
13	0x3e3c5522	0.1839185
14	0x3df0eedc	0.11764309
15	0x3cfa2491	0.030535014

features.2.weight f4 [32, 16, 3, 3]
0	0x3d95dc3b	0.07317396
1	0x3d90dad3	0.070729874
2	0x3d5464b6	0.051853858
3	0xbd9536bb	-0.0728583
4	0x3d7c6668	0.0616211
5	0xbca55a56	-0.020184677
6	0x3d0e9adb	0.03481565
7	0xbd4da543	-0.050206434
8	0xbc710f00	-0.014713049
9	0x3bfabc00	0.007651806
10	0x3c77b0b6	0.015117815
11	0x3c4718d6	0.012151917
12	0x3d28c04e	0.04119902
13	0x3a26e556	0.0006366571
14	0xbd18b316	-0.037280165
15	0x3ab8d556	0.0014101665
16	0x3ce52b86	0.027974855
17	0xbd8caf88	-0.068694174
18	0xbd9355ce	-0.071941
19	0x3d6380e6	0.05554285
20	0xbd41ec93	-0.047344755
21	0x3d7ba376	0.061435185
22	0x3d854eae	0.065091476
23	0x3d75d4a3	0.06001724
24	0x3d9873a7	0.07443934
25	0x3b7a0100	0.0038147569
26	0xbca7e6a0	-0.020495713
27	0x3d5325ee	0.051549844
28	0xbcc5fca6	-0.024168324
29	0x3cdda26b	0.027054986
30	0x3d98f1c7	0.0746799
31	0x3d08c968	0.0333952
32	0xbd674520	-0.056462407
33	0x3d536286	0.05160763
34	0xbc8e52e0	-0.017373502
35	0x3ca00aeb	0.019536456
36	0x3c0765cb	0.008264015
37	0x3d7bf970	0.06151718
38	0x3b9f8fd6	0.0048694415
39	0xbd2f1b06	-0.04275038
40	0x3d024403	0.031803142
41	0x3d383533	0.04497261
42	0x3bbeb82b	0.0058202944
43	0xbc0a0c36	-0.008425763
44	0xbd15d070	-0.036575735
45	0x3d02e343	0.031955015
46	0x3bee6880	0.007275641
47	0x3d685bd8	0.056728214
48	0xbd3d75ae	-0.046254806
49	0x3cdd131b	0.02698665
50	0x3d585076	0.05281111
51	0x3bbb8180	0.0057222247
52	0x3caa01b0	0.020752758
53	0x3c890ba6	0.016729187
54	0x3d12458e	0.035710864
55	0xbd0e04f3	-0.03467269
56	0xbd9a18d6	-0.07524268
57	0xbd93721c	-0.07199499
58	0x3d1b99fe	0.037988655
59	0xbd276190	-0.040864527
60	0x3c8a0d5b	0.016852072
61	0xbcc0edbb	-0.023550859
62	0xbd9b1d14	-0.075739056
63	0xbcd58f40	-0.026069283
64	0x3d360500	0.044438362
65	0x3d768418	0.06018457
66	0x3d3b524e	0.04573279
67	0x3d301f5e	0.042998664
68	0xbc429620	-0.011876613
69	0xbd8d36c2	-0.0689521
70	0xbd2b3730	-0.041800678
71	0xbd50e043	-0.050995123
72	0xbd16d95e	-0.03682839
73	0x3ceb764b	0.02874293
74	0x3d82de08	0.06390005
75	0xbd9885aa	-0.074473694
76	0x3ad48556	0.0016214054
77	0xbcc3f4db	-0.023920467
78	0xbd45aec0	-0.048262358
79	0xbd8e977e	-0.069624886
80	0xbccf4e36	-0.025305849
81	0x3c78f380	0.015194774
82	0xbca43df0	-0.020049065
83	0xbd7a8056	-0.061157547
84	0x3d6a64eb	0.05722515
85	0xbbf60c96	-0.0075088246
86	0x3d234fde	0.03987109
87	0xbd0ae253	-0.033907246
88	0x3d056af3	0.032572698
89	0xbd97b3f7	-0.074073724
90	0x3d982716	0.0742933
91	0xbd483603	-0.048879635
92	0x3b8950ab	0.0041905246
93	0xbd597093	-0.053085875
94	0xbb9cb42b	-0.00478222
95	0xbcc941a6	-0.024567436
96	0xbd8a14cc	-0.06742248
97	0x3d4f5580	0.05061865
98	0x3bb96580	0.0056578517
99	0xbce59726	-0.028026175
100	0xbd431eb0	-0.047636688
101	0xbd84a1a6	-0.064761445
102	0xbcc36556	-0.023852032
103	0xbd6d86eb	-0.057989996
104	0x3d8c4c9e	0.06850551
105	0x3c836cb0	0.016043037
106	0x3d4ec11b	0.05047713
107	0x3d8674ff	0.06565284
108	0x3d942002	0.072326675
109	0xbd0ddfde	-0.034637325
110	0x3da7ac40	0.08187151
111	0x3c5d6600	0.013513088
112	0x3d72577b	0.05916546
113	0x3d851426	0.06497984
114	0xbcdd4156	-0.027008694
115	0xbc356a16	-0.011072656
116	0x3d9182aa	0.07105
117	0xbd492170	-0.049104154
118	0x3d2e790e	0.042595915
119	0xbcb13ccb	-0.021635434
120	0x3cfe6580	0.031054258
121	0xbda7b727	-0.081892304
122	0x3c9db7a0	0.019252598
123	0x3d3ade26	0.045622014
124	0x3d5a96ee	0.053366594
125	0xbd3d01eb	-0.046144407
126	0x3d8f34cc	0.06992492
127	0xbce4a0fb	-0.027908793
128	0x3c5988a0	0.013277203
129	0x3d9fabcf	0.07796442
130	0x3d1ccf36	0.03828355
131	0xbd9f730f	-0.077856176
132	0xbd8cf7c8	-0.06883198
133	0xbcb874e0	-0.022516668
134	0xbd6478ce	-0.05577927
135	0xbd276200	-0.040864944
136	0xbd741aa3	-0.059595715
137	0x3c1ee2e0	0.009697646
138	0x3c5cc9a0	0.0134758055
139	0xbd195510	-0.037434638
140	0xbc71c6b6	-0.014756849
141	0x3d8828e0	0.06648421
142	0xbd92b2a4	-0.07162979
143	0xbd92aa3a	-0.071613744
144	0xbd0463a3	-0.032321583
145	0xbcef9c66	-0.029249381
146	0xbd1b9f0b	-0.037993472
147	0x3d63d0f8	0.05561921
148	0xbd67fae3	-0.05663575
149	0xbd8115a8	-0.06302959
150	0xbb0acc56	-0.0021178923
151	0x3d8659f4	0.06560126
152	0x3da19fc0	0.07891798
153	0x3d38b96b	0.045098703
154	0x3d5864a3	0.05283035
155	0xbda39e4b	-0.07989176
156	0xbce43a96	-0.027859967
157	0xbd9b8f8f	-0.07595741
158	0xbbfc21d6	-0.0076944632
159	0xbd936864	-0.07197645
160	0xbd892e26	-0.06698255
161	0x3d9bc31e	0.07605575
162	0x3d5a8dd3	0.05335791
163	0x3d97bf44	0.07409528
164	0x3c7c0f40	0.015384495
165	0xbd655c76	-0.05599638
166	0x3d9b813b	0.07593008
167	0x3d79365e	0.060842864
168	0xbd7486ae	-0.059698753
169	0x3cdf7fe0	0.027282655
170	0x3d33a586	0.043859027
171	0x3da33cf7	0.079706125
172	0xbd995272	-0.07486428
173	0xbd1de553	-0.03854878
174	0x3d870924	0.0659354
175	0xbd9e8997	-0.07741087
176	0x3d8b99df	0.06816458
177	0x3c9bbf8b	0.019012233
178	0x3d04c3a8	0.032413155
179	0x3a856356	0.0010176699
180	0x3b10c400	0.0022089481
181	0xbd03b95b	-0.03215919
182	0xbd638fe6	-0.055557154
183	0xbd5bb990	-0.053643763
184	0x3d94ebf6	0.072715685
185	0x3cdf98cb	0.027294537
186	0x3d2a76f0	0.041617334
187	0x3b1f3900	0.002429545
188	0x3cf3aca6	0.029745411
189	0x3c014376	0.007889619
190	0x3d99da06	0.07512288
191	0xbd75ef68	-0.06004277
192	0x3cb767f6	0.02238844
193	0xbc0f7440	-0.0087557435
194	0xbd119598	-0.035543054
195	0x3cadb8d0	0.02120629
196	0x3d09042b	0.03345124
197	0xbc871560	-0.016489685
198	0x3c254f0b	0.010089646
199	0xbcb21600	-0.021739006
200	0xbc2d0f00	-0.010562658
201	0x3d2b837e	0.041873448
202	0x3d5b6e58	0.05357203
203	0xbd8f1373	-0.069861315
204	0x3d3f37c3	0.046684038
205	0x3ccb21db	0.024796417
206	0xbda21f9e	-0.07916187
207	0xbda186d0	-0.078870416
208	0x3d8f697b	0.07002541
209	0x3da4e850	0.080521226
210	0xbd7fde48	-0.062467843
211	0x3d9bbf3e	0.07604836
212	0x3d012863	0.031532656
213	0x3bb2a200	0.005451441
214	0x3d102a0e	0.035196356
215	0xbb81d656	-0.0039623184
216	0x3d2c3b4e	0.042048745
217	0x3d60fc93	0.054928374
218	0x3da4d137	0.08047717
219	0x3cb253f0	0.02176854
220	0x3d5e0ac0	0.05420947
221	0x3c1d83eb	0.009613971
222	0x3d49bfbb	0.049255114
223	0xbd41015b	-0.047120433
224	0xbd609d5e	-0.054837577
225	0x3d55b37b	0.05217312
226	0x3d458468	0.048221976
227	0xbc24c8ab	-0.010057609
228	0x3c4c76d6	0.012479505
229	0xbb67b380	-0.0035354793
230	0x3cd95656	0.026530426
231	0x3d5c8656	0.05383905
232	0x3d83eaaa	0.06441243
233	0x3c85095b	0.016239813
234	0xbd8089cb	-0.06276282
235	0xbd909316	-0.070593044
236	0xbc9980fb	-0.01873826
237	0xbd267c2b	-0.04064576
238	0x3d8ecb90	0.0697242
239	0x3d0cc006	0.034362815
240	0x3da3dbeb	0.080009304
241	0xbd82562f	-0.063640945
242	0xbd7d4e46	-0.061842225
243	0xbcaeff7b	-0.021362057
244	0xbcc62280	-0.024186373
245	0x3da6a563	0.08137014
246	0x3d0456e3	0.032309424
247	0xbd50f7c8	-0.051017553
248	0xbd005370	-0.031329572
249	0x3ccec710	0.025241405
250	0xbcd46a36	-0.025929552
251	0x3d69b566	0.05705776
252	0xbd976132	-0.073915854
253	0x3cbb5f06	0.02287246
254	0xbd29d1cb	-0.04145984
255	0xbd6785c8	-0.056524068

features.2.bias f4 [32]
0	0xbd0a2ca6	-0.033733986
1	0xbd090830	-0.033455074
2	0x3d0b7b8e	0.034053378
3	0xbd02fee0	-0.03198135
4	0x3d8b57da	0.06803866
5	0xbc0b1a36	-0.008490136
6	0x3d44e926	0.04807391
7	0xbd87eb46	-0.06636672
8	0xbd58397b	-0.052789193
9	0x3da1ed07	0.079065375
10	0xbc00266b	-0.00782166
11	0xbd7f8f03	-0.062392246
12	0x3da0b82c	0.07847628
13	0x3d298773	0.04138894
14	0x3bfe23d6	0.007755737
15	0x3d9863ea	0.07440932
16	0x3d802bf6	0.06258385
17	0xbd82c597	-0.063853435
18	0x3d370fc6	0.044692777
19	0xbd2d5b88	-0.04232362
20	0xbd9fced8	-0.07803124
21	0x3d9e3c86	0.07726388
22	0xbd8e1910	-0.06938374
23	0x3d023688	0.031790286
24	0xbd0a1ef0	-0.03372091
25	0x3d39e013	0.04537971
26	0x3cf227f0	0.02956006
27	0xbd593796	-0.053031527
28	0x3d1bc588	0.038030177
29	0x3d57d638	0.05269453
30	0xbb6a7600	-0.00357759
31	0x3d747a50	0.05968696

classifier.1.weight f4 [2, 32]
0	0x3deb5106	0.11490063
1	0x3cb717ad	0.022350157
2	0x3d63b70e	0.055594496
3	0xbdc60b31	-0.09670103
4	0x3d3bd1b7	0.045854297
5	0xbd8fb250	-0.07016432
6	0x3d2eb60d	0.042654086
7	0xbe3115c5	-0.1729346
8	0xbda22c40	-0.07918596
9	0xbc309885	-0.010778551
10	0x3d9dbe5c	0.07702324
11	0x3de1a505	0.11017803
12	0xbe21a5ce	-0.15785906
13	0xbdd0fe0a	-0.10204704
14	0xbe114438	-0.1418618
15	0xbd74ba3c	-0.05974792
16	0x3db2c78d	0.087294675
17	0x3db746ec	0.08949074
18	0xbe259287	-0.16169177
19	0xbe22e21c	-0.15906566
20	0xbe2de466	-0.16981658
21	0x3e011727	0.12606488
22	0x3e06aa20	0.13150835
23	0xbdf9bd2b	-0.12194284
24	0x3e2ca824	0.16861016
25	0x3da46241	0.08026553
26	0x3e2f6dcc	0.17131728
27	0xbe0af1b4	-0.13568765
28	0x3d812c61	0.06307293
29	0x3d9b1452	0.07572235
30	0xbc151014	-0.009098072
31	0xbdacd2b0	-0.08438623
32	0xbc59d82f	-0.013296171
33	0x3d1df1a6	0.038560532
34	0xbe164188	-0.14673436
35	0xbd56a27c	-0.05240105
36	0xbde91986	-0.11381821
37	0xbde1c940	-0.110247135
38	0xbe0de040	-0.13855076
39	0xbe0724d1	-0.13197638
40	0x3c421152	0.01184495
41	0xbd92232f	-0.07135617
42	0xbde88f13	-0.11355414
43	0xbd9fb355	-0.07797877
44	0xbd0db135	-0.034592826
45	0xbdb85cf5	-0.09002105
46	0x3dca4ae9	0.09877569
47	0x3a2143b9	0.0006151754
48	0x3dc6beb2	0.09704341
49	0xbcede8b2	-0.029041622
50	0x3e140f41	0.14458944
51	0x3cd1608d	0.025558734
52	0x3d658a3b	0.05604003
53	0xbe1102c3	-0.1416121
54	0xbd402357	-0.046908703
55	0x3d63b505	0.055592556
56	0xbe10adca	-0.14128795
57	0xbd15ab55	-0.036540348
58	0x3d9a3149	0.07528932
59	0xbe098e62	-0.13433221
60	0x3e13679d	0.14394994
61	0x3d8fd40b	0.07022866
62	0xbda0e309	-0.078558035
63	0x3df90dee	0.1216086

classifier.1.bias f4 [2]
0	0xbdd5afef	-0.10433947
1	0xbd3ffb09	-0.046870265
